Ex7/tests/trained_weights.npy (npy, 624 bytes, 1 tensors)

array f8 [31, 2]
-2.4404211954148463 -0.7061545703319891 0.445320391291827 -0.9741057129920379 0.138101367352257 0.3677553550400387 0.09996780275049659 -0.2720532326116909
-0.780058115164806 -0.38928572981585435 0.6164286288084708 0.15076050174918632 -0.3608105738029131 -0.0015042914702300108 0.7493742780650962 -2.0847057660059543
1.1279261094991058 -0.3051067832242784 0.6405753449248881 0.9821615119605631 -1.2407290593068605 -0.8403856403511529 -0.018579195458142832 -1.0537230215419864
1.5842561431339255 -0.706091661123907 -0.5213598586067061 0.17020211072281902 -1.0965366215020884 -0.5012936163302646 0.409823036100649 -0.42523017923298506
-0.11103636422616897 -0.5116826071221504 -1.4850086954510133 0.2921315976094865 1.7581069627116468 0.01522773971902871 0.3532806242702579 0.5647062480941535
-0.7574907316867009 1.190674893269609 0.40771641608690967 1.426469279424999 -0.49226151874537993 1.577290445779219 0.9392310643324072 0.3889645155547328
0.18548803258594648 -0.19999219630724835 1.1057642427157883 0.23512728560612903 -1.897020629418139 -1.1872355358760156 -0.11967622666608246 0.24382945763889033
0.21197298695100722 0.9504093139427597 -1.4038598029594374 -0.4036541245740272 -1.6571780832092065 0.5989111533062227
00000000: 092d 368c fb85 03c0 fee5 2f78 d198 e6bf
00000010: cec7 3519 2180 dc3f dab8 84be df2b efbf
00000020: 25c9 273c 4ead c13f 7bda b4c1 4d89 d73f
00000030: 7b63 776b 7d97 b93f 98a6 35f6 5169 d1bf
00000040: 8097 b36f 3cf6 e8bf 15f3 96b1 0eea d8bf
00000050: be9d 2188 c8b9 e33f 8449 45c0 1e4c c33f
00000060: 5935 a23b 8517 d7bf f841 c5aa 74a5 58bf
00000070: 331a 18c4 dffa e73f c239 7637 7aad 00c0
00000080: 9aa6 893f fc0b f23f 3c1b ef99 de86 d3bf
00000090: 2a71 a2dd 977f e43f 4656 a8fa dd6d ef3f
000000a0: 8bb7 ceb6 06da f3bf 50c2 2a6d 70e4 eabf
000000b0: ebcd 83b3 6c06 93bf cb0a c9ab 0cdc f0bf
000000c0: f6f4 33f8 1c59 f93f 042d 108a 4d98 e6bf
000000d0: 3037 c5de faae e0bf fde0 a1c9 2ec9 c53f
000000e0: 1c7c 03fc 698b f1bf 38a0 fae8 980a e0bf
000000f0: 21c8 4c66 8a3a da3f 23fc 44a4 f836 dbbf
00000100: d4a4 0411 e16c bcbf 61b1 f033 b45f e0bf
00000110: bacd 537a 98c2 f7bf 3c1a 77ba 48b2 d23f
00000120: 6f76 3bc4 3421 fc3f 4d8c aea0 b82f 8f3f
00000130: 3747 e355 269c d63f f928 6dd6 1212 e23f
00000140: 7dc2 f333 5d3d e8bf 202e ec1d 010d f33f
00000150: c2ad 4898 0618 da3f 9d10 7e73 d1d2 f63f
00000160: fecd 0575 3681 dfbf dea3 0ee8 943c f93f
00000170: 1f3d 164e 2e0e ee3f 012c 676c cbe4 d83f
00000180: 58c5 e064 12be c73f d623 4c23 5899 c9bf
00000190: ebce b8d8 35b1 f13f 77ac 09a1 a618 ce3f
000001a0: 0b03 b34d 325a febf cbc8 73b0 eafe f2bf
000001b0: c0b6 a3e7 19a3 bebf 4523 2ebd cd35 cf3f
000001c0: 7985 4b4b ee21 cb3f 9b55 26cb c069 ee3f
000001d0: 9c13 5eb2 3576 f6bf a338 fc1b 78d5 d9bf
000001e0: 0f81 702a cd83 fabf a51d 15b9 472a e33f
